tutorials/custom/lava-dl/Trained/network.pt (torch, 411927 bytes, 2 tensors)

blocks.0.synapse.weight f4 [256, 200, 1, 1, 1]
0	0xbc01808a	-0.007904181
1	0xbd827daf	-0.063716285
2	0x3d48199c	0.048852548
3	0xbb5adbd2	-0.0033395183
4	0x3cf4cd7f	0.029883144
5	0xbbe86eae	-0.007093272
6	0xbd912de4	-0.07088831
7	0xbdab64c8	-0.08368832
8	0xbc7e0731	-0.015504644
9	0x3d130929	0.035897408
10	0x3d2117cd	0.03932934
11	0x3cb05b52	0.02152792
12	0xbd8775aa	-0.066142395
13	0xbd128a10	-0.035776198
14	0xbce97b59	-0.0285012
15	0xbd76f5f8	-0.060293168
16	0xbd82a3b2	-0.06378879
17	0xbc8e94e7	-0.017404987
18	0xbd419784	-0.047263637
19	0x3bf8f298	0.007597279
20	0xbd8f9cfc	-0.07012364
21	0xbbf0824e	-0.0073397523
22	0xbde81912	-0.11332907
23	0xbbd93abc	-0.006629316
24	0x3ca4848b	0.020082733
25	0xbd04fb2f	-0.03246611
26	0x3cd059e4	0.025433488
27	0xbc125ba4	-0.008932982
28	0xbd5582de	-0.052126758
29	0xbd409363	-0.04701556
30	0xbd853325	-0.06503896
31	0xbdb4ee25	-0.08834485
32	0xbd1ac9d9	-0.037790153
33	0xbda5bb75	-0.08092395
34	0xbd998734	-0.07496491
35	0xbd3e79c5	-0.046502847
36	0xbdbb71a0	-0.091525316
37	0xbdad9d0e	-0.084772214
38	0x3d11be24	0.035581723
39	0x3c6ac0e0	0.014328212
40	0xbcf9155a	-0.030405689
41	0xbd17f260	-0.03709638
42	0x3c8bcf12	0.017066512
43	0xbc2c8d02	-0.010531666
44	0xbd64fc52	-0.055904694
45	0x3c88765a	0.016657997
46	0xbdb84eeb	-0.089994274
47	0x3d1bc6f6	0.03803154
48	0xbd5a6ed3	-0.053328346
49	0xbd900902	-0.07032968
50	0x3ccf9994	0.025341786
51	0x3d80d473	0.062905215
52	0x3d52c9ac	0.05146186
53	0xbda248bc	-0.07924029
54	0xbd1837ab	-0.037162464
55	0xbb1fc778	-0.0024380367
56	0xbcdb1e18	-0.026747748
57	0xbd97b3e0	-0.07407355
58	0xbd4de3c0	-0.050266027
59	0xbcbfa77e	-0.023395296
60	0xbc90fd2a	-0.017698843
61	0x3d3fbd91	0.046811644
62	0x3bb86a32	0.005627894
63	0xbb251c09	-0.0025193712
64	0x3ce240ce	0.027618792
65	0x3c719e80	0.014747262
66	0xbdb6076c	-0.08888134
67	0x3c2f634b	0.010704826
68	0xbd626d9f	-0.055280324
69	0x3c82fe73	0.015990471
70	0x3d7e238e	0.062045626
71	0xbd147725	-0.036246438
72	0xbc950036	-0.018188577
73	0xbd0b1fa7	-0.033965733
74	0xbd52c0da	-0.05145345
75	0xbd00ce56	-0.031446777
76	0x3ba39500	0.0049921274
77	0x3d5a1225	0.05323996
78	0x3b277a50	0.0025555082
79	0x3d041baf	0.032252964
80	0xbd176e30	-0.036970317
81	0xbd2b284c	-0.041786477
82	0x3cb047aa	0.021518547
83	0xbb7cdbff	-0.0038583276
84	0x3d45ac82	0.04826022
85	0x3bfecf7d	0.0077761994
86	0xbcba48aa	-0.022739727
87	0xbd929c57	-0.07158726
88	0xbc3cbda5	-0.011519824
89	0xbcff7fd3	-0.031188881
90	0x3cda8a3e	0.026677247
91	0xbc12f166	-0.008968687
92	0x3c6a983c	0.014318522
93	0xbd05a04b	-0.03262357
94	0x3ccae54a	0.024767537
95	0x3cabafb5	0.020957807
96	0xbc9c9465	-0.019113729
97	0x3d8c0852	0.068375245
98	0xbd03d534	-0.03218575
99	0xbd8146d3	-0.06312337
100	0xbbee0204	-0.007263424
101	0xbc2ef28d	-0.010677946
102	0x3c1e3e66	0.009658432
103	0xbdd2f2db	-0.10300227
104	0x3d1a0481	0.03760195
105	0xbda5e369	-0.08100016
106	0x3da035b0	0.0782274
107	0xbd99763d	-0.07493255
108	0xbd9ade52	-0.075619355
109	0xbd690783	-0.05689193
110	0xbc391fdc	-0.0112991
111	0x3ca75679	0.020426976
112	0xbdb1588a	-0.086594656
113	0x3ddcbf95	0.10778729
114	0xbcdfc7cb	-0.027316948
115	0x3d25dad2	0.040491886
116	0xbdcc2cba	-0.099694684
117	0xbd2c4bc7	-0.042064454
118	0xbd8f07e5	-0.06983928
119	0x3b7e04a8	0.00387601
120	0xbd465404	-0.048419967
121	0xbc9cf621	-0.019160332
122	0x3a5a1112	0.0008318584
123	0xbd3eda7f	-0.046595093
124	0xbba3ed8a	-0.005002682
125	0x3cecf11d	0.028923566
126	0xbc4fe2b1	-0.012688325
127	0xbca05f71	-0.01957676
128	0xbcf43e1a	-0.029814769
129	0xbbd40305	-0.0064700865
130	0x3d0ece94	0.034864977
131	0xbcebcadc	-0.028783254
132	0xbcf3b1e7	-0.029747916
133	0xbc156de7	-0.009120441
134	0xbc8bca35	-0.017064193
135	0x3cec8984	0.028874166
136	0xbd88b47a	-0.06675048
137	0x3d530a57	0.051523533
138	0x3d40d5f2	0.047079034
139	0xbd815cdb	-0.06316539
140	0xbd3efb08	-0.04662612
141	0xbbb8ff1d	-0.0056456462
142	0x3d67054a	0.05640153
143	0x3d02e383	0.031955253
144	0x3d4ecff4	0.05049129
145	0xbbfeefba	-0.0077800425
146	0xbd8ff459	-0.070290275
147	0xbc8834be	-0.016626712
148	0x3cd7c39b	0.02633839
149	0x3d8aba4e	0.06773816
150	0x3b015b9c	0.0019738441
151	0xbca96878	-0.020679697
152	0xbce1ad1c	-0.027548365
153	0x3cf94f70	0.030433387
154	0xbd8bfaa2	-0.06834914
155	0x3b089e15	0.0020846177
156	0x3d2242b2	0.039614387
157	0x3cc7ef26	0.024406027
158	0x3d592dce	0.0530222
159	0x3ca3f7dc	0.02001565
160	0xbcbae21d	-0.022812897
161	0xbd6d8654	-0.057989433
162	0xbdc408c3	-0.09571984
163	0xbb6a797a	-0.0035777972
164	0xbcfdb57c	-0.030970328
165	0x3d610b33	0.05494232
166	0xbd9ffe77	-0.07812207
167	0x3c1401fb	0.009033675
168	0xbd67910d	-0.056534816
169	0xbd59014e	-0.05297976
170	0x3d56e8cb	0.052468102
171	0x3d490071	0.049072687
172	0xbd0c4e35	-0.03425427
173	0xbd7bbc41	-0.06145883
174	0xbc2be6be	-0.010492025
175	0x3c6f36ea	0.014600495
176	0xbcbf1e5a	-0.023329902
177	0x3c85c784	0.016330488
178	0xbd9b1f73	-0.07574358
179	0xbab277e1	-0.0013616049
180	0x3cf30d44	0.029669411
181	0xbd285a7a	-0.04110191
182	0x3cb63443	0.022241717
183	0xbd8507e5	-0.064956464
184	0xbdc08eaf	-0.09402215
185	0xbaff6e07	-0.0019487747
186	0xbd2f50c2	-0.042801626
187	0xbd997fe1	-0.07495094
188	0xbc8a16e9	-0.016856628
189	0xbd197da9	-0.037473354
190	0xbd2951ae	-0.04133766
191	0x3c39474e	0.011308504
192	0xbdb0bfe4	-0.0863035
193	0xbda76336	-0.0817322
194	0x3d63dfce	0.05563336
195	0x3cc08ba1	0.02350408
196	0x3c648fe4	0.013950322
197	0x3d64d79e	0.05586969
198	0xbbacc6ec	-0.005272737
199	0xbbe127da	-0.0068712058
200	0xbcd013d4	-0.02540008
201	0xbd66d2ab	-0.056353252
202	0xbd03ed04	-0.032208458
203	0xbcc61cfe	-0.024183746
204	0x3d360707	0.044440296
205	0xbd455c06	-0.048183464
206	0x3d06af42	0.032881983
207	0xbd73ba2a	-0.05950371
208	0xbd2cc545	-0.04218032
209	0x3df0249e	0.11725734
210	0xbc8ca9d7	-0.01717083
211	0xbc87ad67	-0.016562177
212	0xbda560f1	-0.08075131
213	0xbde25852	-0.11052002
214	0xbb58b93d	-0.0033069395
215	0xbd5b464c	-0.053533837
216	0x3c11401e	0.008865384
217	0x3da44405	0.08020786
218	0x3d516392	0.05112035
219	0xbd1ed4b5	-0.038777072
220	0xbd02d2e1	-0.03193939
221	0x3d365934	0.044518664
222	0xbd0ceb01	-0.034403805
223	0x3d3fb2cb	0.04680137
224	0xbd827035	-0.06369058
225	0xbd3a5b6d	-0.045497347
226	0xbcf45444	-0.029825337
227	0xbd18f522	-0.037343152
228	0xbdae2c83	-0.08504584
229	0xbc4b0f4a	-0.012393782
230	0xbd749ed7	-0.059721794
231	0xbd4a78d4	-0.049431637
232	0x3b9acedc	0.0047243666
233	0xbd6996ab	-0.057028454
234	0x3d1eb994	0.0387512
235	0x3d5ad7cd	0.05342846
236	0xbdbacf24	-0.0912154
237	0xbda0abf4	-0.078452975
238	0x3c81bfc5	0.015838513
239	0xbd2e4b90	-0.04255253
240	0x3d462318	0.04837331
241	0x3add04ad	0.0016862355
242	0x3d30c6a8	0.043158203
243	0xbca99428	-0.02070053
244	0x3d7be380	0.061496258
245	0x3d95104e	0.072785005
246	0xbc0d0e13	-0.008609313
247	0xbbc46200	-0.005993128
248	0xbc610398	-0.013733767
249	0x3b0ace09	0.0021179935
250	0x3d08710d	0.03331094
251	0xbd2a957a	-0.04164646
252	0xbc8a5d44	-0.016890176
253	0x3c851b96	0.016248506
254	0xbbfec453	-0.0077748685
255	0x3c69d0f6	0.014271012

blocks.1.synapse.weight f4 [200, 256, 1, 1, 1]
0	0x3d830ee1	0.06399322
1	0xbd09e4fa	-0.033665635
2	0xbced4ea3	-0.028968161
3	0xbca5c376	-0.020234805
4	0x3c365e2b	0.01113085
5	0xbb8fc3c4	-0.0043873508
6	0x3ce84d72	0.028357241
7	0x3d1bae57	0.03800806
8	0x3c04e2f2	0.008110749
9	0xbd6f635a	-0.05844436
10	0x3a1c0a15	0.000595243
11	0xbc804d0c	-0.015661739
12	0x3d3c0197	0.045899954
13	0x3c82a9bf	0.015950082
14	0x3bfe998c	0.007769769
15	0x3d5200d1	0.05127031
16	0x3d36231c	0.044467077
17	0xbac304f5	-0.0014878797
18	0x3c5acf45	0.013355081
19	0x3c657593	0.014005083
20	0xbd3ebc5f	-0.046566363
21	0xbd2e7f9a	-0.04260216
22	0xbcf5d963	-0.030010885
23	0xbc7bb61b	-0.015363242
24	0x3c5a4b2b	0.0133235855
25	0x3c75bf3e	0.014999209
26	0xbc7c25f1	-0.015389905
27	0x3d0a6cde	0.03379523
28	0x3d0af43c	0.033924326
29	0x3ce68cb4	0.028143264
30	0x3d840e09	0.064479895
31	0xbb53f4a1	-0.0032341855
32	0xbd0718f3	-0.032982778
33	0xbd2166ba	-0.03940461
34	0x3d16d40a	0.03682331
35	0xbd1c7416	-0.038196646
36	0x3d468d73	0.04847474
37	0x3d422dc1	0.047406916
38	0x3c6bae34	0.014384795
39	0x3baa468a	0.005196397
40	0xbb7617d8	-0.0037550833
41	0x3c832aa8	0.016011551
42	0x3d46b0a0	0.048508286
43	0xbcedbeb1	-0.029021593
44	0x3c898fcc	0.0167922
45	0xbc4b04a3	-0.012391242
46	0x3d39a814	0.045326307
47	0x3bb1670e	0.0054138964
48	0x3d2dfb41	0.042475943
49	0x3b2b7331	0.0026161189
50	0x3c43124c	0.011906218
51	0xbb1ae504	-0.002363504
52	0xbd45d370	-0.048297346
53	0x3cb944aa	0.02261575
54	0xbb0380d9	-0.0020065813
55	0x3c64589f	0.013937145
56	0xbb6914d6	-0.0035565398
57	0xbc307d9f	-0.010772138
58	0xbcc32f90	-0.02382639
59	0xbbe75f86	-0.007060948
60	0xbc1476fa	-0.009061569
61	0x3ccf3953	0.025295889
62	0xbc8af1fc	-0.01696109
63	0x3bb1f39f	0.005430653
64	0xbb7ab42a	-0.0038254359
65	0xbc9d617b	-0.019211521
66	0x3ca58a02	0.020207409
67	0x3bab70cc	0.0052319523
68	0xbd40ba76	-0.047052823
69	0x3cae56ee	0.021281686
70	0xbc677be8	-0.014128663
71	0xbc0cd11c	-0.008594777
72	0xbd4023ec	-0.046909258
73	0x3d2c0d55	0.042004902
74	0xbcb1dd1c	-0.021711878
75	0xbd3d1789	-0.046165023
76	0x3cd44bdc	0.025915079
77	0xbd003172	-0.031297155
78	0xbc4994c4	-0.012303535
79	0xbccd32b3	-0.02504859
80	0x3c5468d7	0.012964449
81	0xbd48c360	-0.04901445
82	0xbc815a5b	-0.015790155
83	0x3c851ebc	0.016250007
84	0x3b88c442	0.0041737864
85	0x3d3d90f0	0.0462808
86	0x3cd8acee	0.026449647
87	0x3d36db8e	0.044642977
88	0x3c3d63e4	0.01155946
89	0xbc855ecc	-0.016280554
90	0xbcc49014	-0.023994483
91	0x3d2fa33f	0.042880293
92	0x3d7b43a2	0.061343797
93	0xbd35ef08	-0.04441741
94	0x3d3db2d8	0.046313137
95	0xbbd1d436	-0.0064034713
96	0x3c23065b	0.009950246
97	0x3bc9a521	0.006153718
98	0xbbab0b37	-0.005219843
99	0x3b7af1d5	0.0038291116
100	0x3c1804b3	0.009278464
101	0xbb753597	-0.0037415975
102	0x3aa1fa8e	0.0012357996
103	0xbcbe23a8	-0.023210362
104	0x3c09037b	0.008362646
105	0xbc8a5fec	-0.016891442
106	0x3c69a493	0.014260429
107	0x3c79966c	0.015233617
108	0xbc8cf7b6	-0.017207962
109	0xbd239733	-0.039939117
110	0xba82cfb4	-0.0009980113
111	0x3c896808	0.016773239
112	0x3ce19bf3	0.027540183
113	0xbb9457a6	-0.00452705
114	0x3b46af16	0.0030316762
115	0xbd11984c	-0.035545632
116	0xbd416984	-0.04721977
117	0xbcd89d36	-0.026442152
118	0x3c70d97c	0.01470029
119	0x3d3b521f	0.045732614
120	0x3d39bfff	0.045349117
121	0xbc751018	-0.01495745
122	0xbb4a1911	-0.0030837695
123	0x3a9e7482	0.0012089165
124	0xbc147cd0	-0.009062961
125	0x3d21b916	0.039483152
126	0x3ab7ffba	0.0014038004
127	0xbd1ab67f	-0.037771698
128	0xbd048af7	-0.03235909
129	0x3d4bca06	0.04975321
130	0xbd3485bb	-0.044072848
131	0xbc7c4d76	-0.0153993275
132	0xbc9ae63b	-0.01890861
133	0xbd3dc54f	-0.046330746
134	0x3c8d79ff	0.017270086
135	0x3d358fce	0.044326596
136	0x3d212ea1	0.03935111
137	0x3bd172bb	0.0063918508
138	0x3d025b0e	0.031825118
139	0xbcf0943f	-0.029367564
140	0xbc923361	-0.017846765
141	0x3d3e7bc6	0.04650476
142	0x3c923bad	0.017850721
143	0x3b7907a8	0.0037998948
144	0x3d17173b	0.03688739
145	0xbca49aa6	-0.020093273
146	0x3d3d2c29	0.046184693
147	0xbb8ba85e	-0.0042620143
148	0x3d011666	0.0315155
149	0xbc30ab91	-0.010783092
150	0x3cf6dc68	0.030134395
151	0x3d3fc54d	0.04681902
152	0x3c84228a	0.01612975
153	0xbbdbbdda	-0.0067059817
154	0x3cb4834f	0.022035269
155	0xbd11b1de	-0.035570018
156	0x3d1922eb	0.037386816
157	0x3cb00387	0.021486057
158	0x3c782d88	0.015147574
159	0x3cf1a118	0.02949576
160	0xb9ee71c2	-0.00045479654
161	0xbd0f0a20	-0.034921765
162	0x3d09365c	0.033499107
163	0xbca4461b	-0.02005296
164	0xbc8e82a4	-0.017396279
165	0xbcd3c02b	-0.025848469
166	0xbc8e56e8	-0.017375425
167	0x3c281dce	0.010261012
168	0x3c5ea233	0.013588476
169	0xbb8b95f8	-0.004259821
170	0x3ac1c5c4	0.001478367
171	0xbc6d4062	-0.014480682
172	0x3c863fd0	0.01638785
173	0x3d11eede	0.035628192
174	0x3ce1ac88	0.02754809
175	0xbcb7f84a	-0.02245726
176	0xbbe905fb	-0.0071113086
177	0x3c769bcb	0.015051792
178	0x3d4f1931	0.050561134
179	0x3c78b964	0.015180919
180	0x3d3b225d	0.04568707
181	0xbcaa1c92	-0.020765577
182	0x3cf8748f	0.030329017
183	0x3d3c6952	0.04599888
184	0xbce53a1b	-0.027981808
185	0xbc90a542	-0.017656926
186	0x3bc565c5	0.0060240948
187	0x3befbf36	0.0073164953
188	0x3d523392	0.051318713
189	0x3cd4b2d9	0.025964187
190	0x3c07863c	0.00827175
191	0x3b62b951	0.003459532
192	0xbc88ee92	-0.016715322
193	0xbc3e1e86	-0.011603957
194	0xbd0f5d08	-0.03500083
195	0x3cb1703a	0.02165996
196	0xbc7ac534	-0.015305806
197	0x3d3b0dab	0.04566733
198	0xbb9e73c5	-0.004835578
199	0x3b757942	0.0037456308
200	0xbd1f1e01	-0.038846973
201	0x3d17adf5	0.037031133
202	0xbccd6fc9	-0.025077717
203	0x3c331a4e	0.0109315645
204	0x3d01a364	0.031649962
205	0xbca46882	-0.020069364
206	0x3c815fa8	0.015792683
207	0xbd0ac290	-0.033876956
208	0x3ce2bbb3	0.027677393
209	0xbcaa0f8a	-0.020759363
210	0x3d3cb5c1	0.04607177
211	0x3c834738	0.01602517
212	0xbb9c3690	-0.0047672465
213	0x3d3f2376	0.046664678
214	0x3c88ba69	0.01669045
215	0xbc5ea854	-0.013589937
216	0xbc242c9f	-0.010020404
217	0xbcf43096	-0.029808324
218	0x3cd11886	0.025524389
219	0x3bf86c77	0.0075812894
220	0xbc9cc181	-0.019135239
221	0x3cfec425	0.031099388
222	0xbc7b6003	-0.015342715
223	0x3d16442f	0.03668612
224	0xbcbb206f	-0.022842614
225	0xbd2f9535	-0.042866904
226	0x3c1ab2b0	0.0094420165
227	0xbcbdb4ee	-0.023157563
228	0x3cfa8884	0.030582674
229	0x3c89ec05	0.016836176
230	0x3d002eff	0.03129482
231	0x3d1e688f	0.038673934
232	0x3ce11d93	0.027479922
233	0x3cde72c1	0.027154328
234	0xbc282b05	-0.010264163
235	0xbcb32883	-0.021869903
236	0x3d026535	0.0318348
237	0x3c8690e1	0.016426506
238	0xbcaa4f19	-0.02078967
239	0xbd3650e1	-0.044510726
240	0x3d46fe05	0.048582096
241	0x3d1acaf3	0.037791204
242	0x3cbcba84	0.023038156
243	0x3cbf95b2	0.02338681
244	0xbbad9f14	-0.0052985046
245	0x3c834a43	0.016026622
246	0xbcad2bbe	-0.021139022
247	0xbd4e96a3	-0.050436627
248	0xbc380d02	-0.01123357
249	0xbd2831f0	-0.04106325
250	0xbcfabe4f	-0.030608324
251	0x3cfb8738	0.030704126
252	0xbc8e2b68	-0.017354682
253	0xbc449348	-0.011998005
254	0xbca72056	-0.020401161
255	0x3d089747	0.033347394
